…
2024-09-26 14:12:32,553:INFO: Validation G Loss: 1.8405
2024-09-26 14:16:34,126:INFO: Loading the datasets...
2024-09-26 14:16:34,127:INFO: - Done.
2024-09-26 14:16:38,086:INFO: Generator weights not found at tests/truecondW1/gen_weights.pth. Training from scratch.
2024-09-26 14:16:38,086:INFO: Discriminator weights not found at tests/truecondW1/disc_weights.pth. Training from scratch.
2024-09-26 14:16:38,086:INFO: Starting training for 200 epoch(s)
2024-09-26 14:16:38,086:INFO: Epoch 1/200
2024-09-26 14:16:38,284:INFO: Generator Model Structure:
2024-09-26 14:16:38,284:INFO: Generator(
  (noise): Sequential(
    (0): Linear(in_features=8, out_features=128, bias=True)
    (1): LeakyReLU(negative_slope=0.2, inplace=True)
    (2): Linear(in_features=128, out_features=64, bias=True)
    (3): LeakyReLU(negative_slope=0.2, inplace=True)
  )
  (cond): Sequential(
    (0): Linear(in_features=3, out_features=128, bias=True)
    (1): LeakyReLU(negative_slope=0.2, inplace=True)
    (2): Linear(in_features=128, out_features=64, bias=True)
    (3): LeakyReLU(negative_slope=0.2, inplace=True)
  )
  (out): Sequential(
    (0): Linear(in_features=128, out_features=128, bias=True)
    (1): LeakyReLU(negative_slope=0.2, inplace=True)
    (2): Linear(in_features=128, out_features=128, bias=True)
    (3): LeakyReLU(negative_slope=0.2, inplace=True)
    (4): Linear(in_features=128, out_features=13, bias=True)
  )
)
2024-09-26 14:16:38,285:INFO: Discriminator Model Structure:
2024-09-26 14:16:38,285:INFO: Discriminator(
  (genout): Sequential(
    (0): Linear(in_features=13, out_features=128, bias=True)
    (1): LeakyReLU(negative_slope=0.2, inplace=True)
    (2): Dropout(p=0.3, inplace=False)
    (3): Linear(in_features=128, out_features=64, bias=True)
    (4): LeakyReLU(negative_slope=0.2, inplace=True)
    (5): Dropout(p=0.3, inplace=False)
  )
  (cond): Sequential(
    (0): Linear(in_features=3, out_features=128, bias=True)
    (1): LeakyReLU(negative_slope=0.2, inplace=True)
    (2): Dropout(p=0.3, inplace=False)
    (3): Linear(in_features=128, out_features=64, bias=True)
    (4): LeakyReLU(negative_slope=0.2, inplace=True)
    (5): Dropout(p=0.3, inplace=False)
  )
  (out): Sequential(
    (0): Linear(in_features=128, out_features=128, bias=True)
    (1): LeakyReLU(negative_slope=0.2, inplace=True)
    (2): Dropout(p=0.3, inplace=False)
    (3): Linear(in_features=128, out_features=128, bias=True)
    (4): LeakyReLU(negative_slope=0.2, inplace=True)
    (5): Dropout(p=0.3, inplace=False)
    (6): Linear(in_features=128, out_features=1, bias=True)
  )
)
2024-09-26 14:18:55,865:INFO: Loading the datasets...
2024-09-26 14:18:55,866:INFO: - Done.
2024-09-26 14:18:59,791:INFO: Generator weights not found at tests/truecondW1/gen_weights.pth. Training from scratch.
2024-09-26 14:18:59,791:INFO: Discriminator weights not found at tests/truecondW1/disc_weights.pth. Training from scratch.
2024-09-26 14:18:59,791:INFO: Starting training for 200 epoch(s)
2024-09-26 14:18:59,791:INFO: Epoch 1/200
2024-09-26 14:18:59,988:INFO: Generator Model Structure:
2024-09-26 14:18:59,989:INFO: Generator(
  (noise): Sequential(
    (0): Linear(in_features=8, out_features=128, bias=True)
    (1): LeakyReLU(negative_slope=0.2, inplace=True)
    (2): Linear(in_features=128, out_features=64, bias=True)
    (3): LeakyReLU(negative_slope=0.2, inplace=True)
  )
  (cond): Sequential(
    (0): Linear(in_features=3, out_features=128, bias=True)
    (1): LeakyReLU(negative_slope=0.2, inplace=True)
    (2): Linear(in_features=128, out_features=64, bias=True)
    (3): LeakyReLU(negative_slope=0.2, inplace=True)
  )
  (out): Sequential(
    (0): Linear(in_features=128, out_features=128, bias=True)
    (1): LeakyReLU(negative_slope=0.2, inplace=True)
    (2): Linear(in_features=128, out_features=128, bias=True)
    (3): LeakyReLU(negative_slope=0.2, inplace=True)
    (4): Linear(in_features=128, out_features=13, bias=True)
  )
)
2024-09-26 14:18:59,989:INFO: Discriminator Model Structure:
2024-09-26 14:18:59,989:INFO: Discriminator(
  (genout): Sequential(
    (0): Linear(in_features=13, out_features=128, bias=True)
    (1): LeakyReLU(negative_slope=0.2, inplace=True)
    (2): Dropout(p=0.3, inplace=False)
    (3): Linear(in_features=128, out_features=64, bias=True)
    (4): LeakyReLU(negative_slope=0.2, inplace=True)
    (5): Dropout(p=0.3, inplace=False)
  )
  (cond): Sequential(
    (0): Linear(in_features=3, out_features=128, bias=True)
    (1): LeakyReLU(negative_slope=0.2, inplace=True)
    (2): Dropout(p=0.3, inplace=False)
    (3): Linear(in_features=128, out_features=64, bias=True)
    (4): LeakyReLU(negative_slope=0.2, inplace=True)
    (5): Dropout(p=0.3, inplace=False)
  )
  (out): Sequential(
    (0): Linear(in_features=128, out_features=128, bias=True)
    (1): LeakyReLU(negative_slope=0.2, inplace=True)
    (2): Dropout(p=0.3, inplace=False)
    (3): Linear(in_features=128, out_features=128, bias=True)
    (4): LeakyReLU(negative_slope=0.2, inplace=True)
    (5): Dropout(p=0.3, inplace=False)
    (6): Linear(in_features=128, out_features=1, bias=True)
  )
)
2024-09-26 14:18:59,991:INFO: Condition batch shape: torch.Size([8, 3])
2024-09-26 14:18:59,991:INFO: Real data batch shape: torch.Size([8, 13])
2024-09-26 14:18:59,991:INFO: Fake data batch shape: torch.Size([8, 13])
2024-09-26 14:19:22,328:INFO: Loading the datasets...
2024-09-26 14:19:22,330:INFO: - Done.
2024-09-26 14:19:26,273:INFO: Generator weights not found at tests/truecondW1/gen_weights.pth. Training from scratch.
…
